module {
  ml_program.global public mutable @vars.__sm_node19__optimizer._iterations(dense<7800> : tensor<i64>) : tensor<i64>
  ml_program.global public @vars.__sm_node20__optimizer._learning_rate(dense<9.99999974E-5> : tensor<f32>) : tensor<f32>
  ml_program.global public mutable @vars.__sm_node36__optimizer._variables.6(dense<"…"> : tensor<128x10xf32>) : tensor<128x10xf32>
  ml_program.global public mutable @vars.__sm_node37__optimizer._variables.7(dense<"…"> : tensor<128x10xf32>) : tensor<128x10xf32>
  ml_program.global public mutable @vars.__sm_node38__optimizer._variables.8(dense<[3.67629051E-4, 0.00198571687, -0.00282688183, 0.00163346273, 7.65192497E-4, -0.00173388817, 3.34053795E-4, -7.67034537E-4, 6.7443517E-4, -4.32633504E-4]> : tensor<10xf32>) : tensor<10xf32>
  ml_program.global public mutable @vars.__sm_node39__optimizer._variables.9(dense<[3.53713549E-5, 8.61461521E-5, 1.16840347E-4, 1.34185102E-4, 1.22422556E-4, 1.06144944E-4, 4.98886839E-5, 1.21062556E-4, 1.37107665E-4, 1.69025705E-4]> : tensor<10xf32>) : tensor<10xf32>
  ml_program.global public mutable @vars.__sm_node32__optimizer._variables.2(dense<"…"> : tensor<784x128xf32>) : tensor<784x128xf32>
  ml_program.global public mutable @vars.__sm_node33__optimizer._variables.3(dense<"…"> : tensor<784x128xf32>) : tensor<784x128xf32>
  ml_program.global public mutable @vars.__sm_node34__optimizer._variables.4(dense<"…"> : tensor<128xf32>) : tensor<128xf32>
  ml_program.global public mutable @vars.__sm_node35__optimizer._variables.5(dense<"…"> : tensor<128xf32>) : tensor<128xf32>
  ml_program.global public mutable @vars.__sm_node41__model._layers.2.bias(dense<"…"> : tensor<128xf32>) : tensor<128xf32>
  ml_program.global public mutable @vars.__sm_node40__model._layers.2._kernel(dense<"…"> : tensor<784x128xf32>) : tensor<784x128xf32>
  ml_program.global public mutable @vars.__sm_node43__model._layers.4.bias(dense<[-0.0204244088, 0.0358081385, 0.0016795129, -0.0375697128, 0.0147730475, 0.0220118612, 0.0188060757, 0.0496850125, -0.0546498485, -0.0246782601]> : tensor<10xf32>) : tensor<10xf32>
  ml_program.global public mutable @vars.__sm_node42__model._layers.4._kernel(dense<"…"> : tensor<128x10xf32>) : tensor<128x10xf32>
  func.func @approx_learn(%arg0: tensor<32x28x28x1xf32>, %arg1: tensor<32x10xf32>) -> tensor<f32> {
    %cst = stablehlo.constant dense<1.000000e-01> : tensor<128xf32>
    %cst_0 = stablehlo.constant dense<1.000000e-01> : tensor<784x128xf32>
    %cst_1 = stablehlo.constant dense<1.000000e-01> : tensor<10xf32>
    %cst_2 = stablehlo.constant dense<1.000000e-01> : tensor<128x10xf32>
    %cst_3 = stablehlo.constant dense<1.000000e-07> : tensor<10xf32>
    %cst_4 = stablehlo.constant dense<1.000000e-03> : tensor<10xf32>
    %cst_5 = stablehlo.constant dense<1.000000e-07> : tensor<128x10xf32>
    %cst_6 = stablehlo.constant dense<1.000000e-03> : tensor<128x10xf32>
    %cst_7 = stablehlo.constant dense<1.000000e-07> : tensor<128xf32>
    %cst_8 = stablehlo.constant dense<1.000000e-03> : tensor<128xf32>
    %cst_9 = stablehlo.constant dense<1.000000e-07> : tensor<784x128xf32>
    %cst_10 = stablehlo.constant dense<1.000000e-03> : tensor<784x128xf32>
    %cst_11 = stablehlo.constant dense<1.000000e-07> : tensor<32x10xf32>
    %cst_12 = stablehlo.constant dense<1.000000e+00> : tensor<32x10xf32>
    %cst_13 = stablehlo.constant dense<0.000000e+00> : tensor<32x128xf32>
    %cst_14 = stablehlo.constant dense<-0.000000e+00> : tensor<f32>
    %cst_15 = stablehlo.constant dense<0xFF800000> : tensor<f32>
    %c = stablehlo.constant dense<1> : tensor<i64>
    %cst_16 = stablehlo.constant dense<9.990000e-01> : tensor<f32>
    %cst_17 = stablehlo.constant dense<0.899999976> : tensor<f32>
    %cst_18 = stablehlo.constant dense<1.000000e+00> : tensor<f32>
    %cst_19 = stablehlo.constant dense<0.000000e+00> : tensor<32x10xf32>
    %cst_20 = stablehlo.constant dense<3.200000e+01> : tensor<f32>
    %cst_21 = stablehlo.constant dense<3.125000e-02> : tensor<32x10xf32>
    %0 = stablehlo.reshape %arg0 : (tensor<32x28x28x1xf32>) -> tensor<32x784xf32>
    %1 = stablehlo.minimum %arg1, %cst_12 : tensor<32x10xf32>
    %2 = stablehlo.maximum %1, %cst_11 : tensor<32x10xf32>
    %3 = stablehlo.negate %2 : tensor<32x10xf32>
    %4 = stablehlo.multiply %2, %cst_21 : tensor<32x10xf32>
    %5 = stablehlo.transpose %0, dims = [1, 0] : (tensor<32x784xf32>) -> tensor<784x32xf32>
    %vars.__sm_node19__optimizer._iterations = ml_program.global_load @vars.__sm_node19__optimizer._iterations : tensor<i64>
    %vars.__sm_node19__optimizer._iterations_22 = ml_program.global_load @vars.__sm_node19__optimizer._iterations : tensor<i64>
    %vars.__sm_node19__optimizer._iterations_23 = ml_program.global_load @vars.__sm_node19__optimizer._iterations : tensor<i64>
    %vars.__sm_node19__optimizer._iterations_24 = ml_program.global_load @vars.__sm_node19__optimizer._iterations : tensor<i64>
    %vars.__sm_node19__optimizer._iterations_25 = ml_program.global_load @vars.__sm_node19__optimizer._iterations : tensor<i64>
    %6 = stablehlo.add %vars.__sm_node19__optimizer._iterations, %c : tensor<i64>
    %7 = stablehlo.convert %6 : (tensor<i64>) -> tensor<f32>
    %8 = stablehlo.power %cst_17, %7 : tensor<f32>
    %9 = stablehlo.subtract %cst_18, %8 : tensor<f32>
    %10 = stablehlo.power %cst_16, %7 : tensor<f32>
    %11 = stablehlo.subtract %cst_18, %10 : tensor<f32>
    %12 = stablehlo.sqrt %11 : tensor<f32>
    %13 = stablehlo.add %vars.__sm_node19__optimizer._iterations_22, %c : tensor<i64>
    %14 = stablehlo.convert %13 : (tensor<i64>) -> tensor<f32>
    %15 = stablehlo.power %cst_17, %14 : tensor<f32>
    %16 = stablehlo.subtract %cst_18, %15 : tensor<f32>
    %17 = stablehlo.power %cst_16, %14 : tensor<f32>
    %18 = stablehlo.subtract %cst_18, %17 : tensor<f32>
    %19 = stablehlo.sqrt %18 : tensor<f32>
    %20 = stablehlo.add %vars.__sm_node19__optimizer._iterations_23, %c : tensor<i64>
    %21 = stablehlo.convert %20 : (tensor<i64>) -> tensor<f32>
    %22 = stablehlo.power %cst_17, %21 : tensor<f32>
    %23 = stablehlo.subtract %cst_18, %22 : tensor<f32>
    %24 = stablehlo.power %cst_16, %21 : tensor<f32>
    %25 = stablehlo.subtract %cst_18, %24 : tensor<f32>
    %26 = stablehlo.sqrt %25 : tensor<f32>
    %27 = stablehlo.add %vars.__sm_node19__optimizer._iterations_24, %c : tensor<i64>
    %28 = stablehlo.convert %27 : (tensor<i64>) -> tensor<f32>
    %29 = stablehlo.power %cst_17, %28 : tensor<f32>
    %30 = stablehlo.subtract %cst_18, %29 : tensor<f32>
    %31 = stablehlo.power %cst_16, %28 : tensor<f32>
    %32 = stablehlo.subtract %cst_18, %31 : tensor<f32>
    %33 = stablehlo.sqrt %32 : tensor<f32>
    %34 = stablehlo.add %vars.__sm_node19__optimizer._iterations_25, %c : tensor<i64>
    ml_program.global_store @vars.__sm_node19__optimizer._iterations = %34 : tensor<i64>
    %vars.__sm_node20__optimizer._learning_rate = ml_program.global_load @vars.__sm_node20__optimizer._learning_rate : tensor<f32>
    %vars.__sm_node20__optimizer._learning_rate_26 = ml_program.global_load @vars.__sm_node20__optimizer._learning_rate : tensor<f32>
    %vars.__sm_node20__optimizer._learning_rate_27 = ml_program.global_load @vars.__sm_node20__optimizer._learning_rate : tensor<f32>
    %vars.__sm_node20__optimizer._learning_rate_28 = ml_program.global_load @vars.__sm_node20__optimizer._learning_rate : tensor<f32>
    %vars.__sm_node36__optimizer._variables.6 = ml_program.global_load @vars.__sm_node36__optimizer._variables.6 : tensor<128x10xf32>
    %vars.__sm_node37__optimizer._variables.7 = ml_program.global_load @vars.__sm_node37__optimizer._variables.7 : tensor<128x10xf32>
    %vars.__sm_node38__optimizer._variables.8 = ml_program.global_load @vars.__sm_node38__optimizer._variables.8 : tensor<10xf32>
    %vars.__sm_node39__optimizer._variables.9 = ml_program.global_load @vars.__sm_node39__optimizer._variables.9 : tensor<10xf32>
    %vars.__sm_node32__optimizer._variables.2 = ml_program.global_load @vars.__sm_node32__optimizer._variables.2 : tensor<784x128xf32>
    %vars.__sm_node33__optimizer._variables.3 = ml_program.global_load @vars.__sm_node33__optimizer._variables.3 : tensor<784x128xf32>
    %vars.__sm_node34__optimizer._variables.4 = ml_program.global_load @vars.__sm_node34__optimizer._variables.4 : tensor<128xf32>
    %vars.__sm_node35__optimizer._variables.5 = ml_program.global_load @vars.__sm_node35__optimizer._variables.5 : tensor<128xf32>
    %vars.__sm_node41__model._layers.2.bias = ml_program.global_load @vars.__sm_node41__model._layers.2.bias : tensor<128xf32>
    %vars.__sm_node40__model._layers.2._kernel = ml_program.global_load @vars.__sm_node40__model._layers.2._kernel : tensor<784x128xf32>
    %vars.__sm_node43__model._layers.4.bias = ml_program.global_load @vars.__sm_node43__model._layers.4.bias : tensor<10xf32>
    %vars.__sm_node42__model._layers.4._kernel = ml_program.global_load @vars.__sm_node42__model._layers.4._kernel : tensor<128x10xf32>
    %vars.__sm_node33__optimizer._variables.3_29 = ml_program.global_load @vars.__sm_node33__optimizer._variables.3 : tensor<784x128xf32>
    %35 = stablehlo.multiply %vars.__sm_node20__optimizer._learning_rate, %12 : tensor<f32>
    %36 = stablehlo.divide %35, %9 : tensor<f32>
    %37 = stablehlo.multiply %vars.__sm_node20__optimizer._learning_rate_26, %26 : tensor<f32>
    %38 = stablehlo.divide %37, %23 : tensor<f32>
    %39 = stablehlo.multiply %vars.__sm_node20__optimizer._learning_rate_27, %33 : tensor<f32>
    %40 = stablehlo.divide %39, %30 : tensor<f32>
    %41 = stablehlo.multiply %vars.__sm_node20__optimizer._learning_rate_28, %19 : tensor<f32>
    %42 = stablehlo.divide %41, %16 : tensor<f32>
    %43 = stablehlo.dot %0, %vars.__sm_node40__model._layers.2._kernel, precision = [DEFAULT, DEFAULT] : (tensor<32x784xf32>, tensor<784x128xf32>) -> tensor<32x128xf32>
    %44 = stablehlo.broadcast_in_dim %vars.__sm_node41__model._layers.2.bias, dims = [1] : (tensor<128xf32>) -> tensor<32x128xf32>
    %45 = stablehlo.add %43, %44 : tensor<32x128xf32>
    %46 = stablehlo.maximum %45, %cst_13 : tensor<32x128xf32>
    %47 = stablehlo.dot %46, %vars.__sm_node42__model._layers.4._kernel, precision = [DEFAULT, DEFAULT] : (tensor<32x128xf32>, tensor<128x10xf32>) -> tensor<32x10xf32>
    %48 = stablehlo.broadcast_in_dim %vars.__sm_node43__model._layers.4.bias, dims = [1] : (tensor<10xf32>) -> tensor<32x10xf32>
    %49 = stablehlo.add %47, %48 : tensor<32x10xf32>
    %50 = stablehlo.reduce(%49 init: %cst_15) applies stablehlo.maximum across dimensions = [1] : (tensor<32x10xf32>, tensor<f32>) -> tensor<32xf32>
    %51 = stablehlo.reshape %50 : (tensor<32xf32>) -> tensor<32x1xf32>
    %52 = stablehlo.broadcast_in_dim %51, dims = [0, 1] : (tensor<32x1xf32>) -> tensor<32x10xf32>
    %53 = stablehlo.subtract %49, %52 : tensor<32x10xf32>
    %54 = stablehlo.exponential %53 : tensor<32x10xf32>
    %55 = stablehlo.reduce(%54 init: %cst_14) applies stablehlo.add across dimensions = [1] : (tensor<32x10xf32>, tensor<f32>) -> tensor<32xf32>
    %56 = stablehlo.reshape %55 : (tensor<32xf32>) -> tensor<32x1xf32>
    %57 = stablehlo.broadcast_in_dim %56, dims = [0, 1] : (tensor<32x1xf32>) -> tensor<32x10xf32>
    %58 = stablehlo.divide %54, %57 : tensor<32x10xf32>
    %59 = stablehlo.compare  LE, %58, %cst_12 : (tensor<32x10xf32>, tensor<32x10xf32>) -> tensor<32x10xi1>
    %60 = stablehlo.minimum %58, %cst_12 : tensor<32x10xf32>
    %61 = stablehlo.compare  GE, %60, %cst_11 : (tensor<32x10xf32>, tensor<32x10xf32>) -> tensor<32x10xi1>
    %62 = stablehlo.maximum %60, %cst_11 : tensor<32x10xf32>
    %63 = stablehlo.divide %3, %62 : tensor<32x10xf32>
    %64 = stablehlo.divide %63, %62 : tensor<32x10xf32>
    %65 = stablehlo.divide %2, %62 : tensor<32x10xf32>
    %66 = stablehlo.log %65 : tensor<32x10xf32>
    %67 = stablehlo.multiply %2, %66 : tensor<32x10xf32>
    %68 = stablehlo.reduce(%67 init: %cst_14) applies stablehlo.add across dimensions = [1] : (tensor<32x10xf32>, tensor<f32>) -> tensor<32xf32>
    %69 = stablehlo.reduce(%68 init: %cst_14) applies stablehlo.add across dimensions = [0] : (tensor<32xf32>, tensor<f32>) -> tensor<f32>
    %70 = stablehlo.divide %69, %cst_20 : tensor<f32>
    %71 = stablehlo.divide %cst_12, %65 : tensor<32x10xf32>
    %72 = stablehlo.multiply %4, %71 : tensor<32x10xf32>
    %73 = stablehlo.multiply %72, %64 : tensor<32x10xf32>
    %74 = stablehlo.select %61, %73, %cst_19 : tensor<32x10xi1>, tensor<32x10xf32>
    %75 = stablehlo.select %59, %74, %cst_19 : tensor<32x10xi1>, tensor<32x10xf32>
    %76 = stablehlo.multiply %75, %58 : tensor<32x10xf32>
    %77 = stablehlo.reduce(%76 init: %cst_14) applies stablehlo.add across dimensions = [1] : (tensor<32x10xf32>, tensor<f32>) -> tensor<32xf32>
    %78 = stablehlo.reshape %77 : (tensor<32xf32>) -> tensor<32x1xf32>
    %79 = stablehlo.broadcast_in_dim %78, dims = [0, 1] : (tensor<32x1xf32>) -> tensor<32x10xf32>
    %80 = stablehlo.subtract %75, %79 : tensor<32x10xf32>
    %81 = stablehlo.multiply %80, %58 : tensor<32x10xf32>
    %82 = stablehlo.reduce(%81 init: %cst_14) applies stablehlo.add across dimensions = [0] : (tensor<32x10xf32>, tensor<f32>) -> tensor<10xf32>
    %83 = stablehlo.transpose %vars.__sm_node42__model._layers.4._kernel, dims = [1, 0] : (tensor<128x10xf32>) -> tensor<10x128xf32>
    %84 = stablehlo.dot %81, %83, precision = [DEFAULT, DEFAULT] : (tensor<32x10xf32>, tensor<10x128xf32>) -> tensor<32x128xf32>
    %85 = stablehlo.compare  GT, %46, %cst_13 : (tensor<32x128xf32>, tensor<32x128xf32>) -> tensor<32x128xi1>
    %86 = stablehlo.select %85, %84, %cst_13 : tensor<32x128xi1>, tensor<32x128xf32>
    %87 = stablehlo.reduce(%86 init: %cst_14) applies stablehlo.add across dimensions = [0] : (tensor<32x128xf32>, tensor<f32>) -> tensor<128xf32>
    %88 = stablehlo.dot %5, %86, precision = [DEFAULT, DEFAULT] : (tensor<784x32xf32>, tensor<32x128xf32>) -> tensor<784x128xf32>
    %89 = stablehlo.transpose %46, dims = [1, 0] : (tensor<32x128xf32>) -> tensor<128x32xf32>
    %90 = stablehlo.dot %89, %81, precision = [DEFAULT, DEFAULT] : (tensor<128x32xf32>, tensor<32x10xf32>) -> tensor<128x10xf32>
    %91 = stablehlo.multiply %88, %88 : tensor<784x128xf32>
    %92 = stablehlo.subtract %91, %vars.__sm_node33__optimizer._variables.3 : tensor<784x128xf32>
    %93 = stablehlo.multiply %92, %cst_10 : tensor<784x128xf32>
    %94 = stablehlo.add %vars.__sm_node33__optimizer._variables.3_29, %93 : tensor<784x128xf32>
    %95 = stablehlo.multiply %87, %87 : tensor<128xf32>
    %96 = stablehlo.subtract %95, %vars.__sm_node35__optimizer._variables.5 : tensor<128xf32>
    %97 = stablehlo.multiply %96, %cst_8 : tensor<128xf32>
    %98 = stablehlo.multiply %90, %90 : tensor<128x10xf32>
    %99 = stablehlo.subtract %98, %vars.__sm_node37__optimizer._variables.7 : tensor<128x10xf32>
    %100 = stablehlo.multiply %99, %cst_6 : tensor<128x10xf32>
    %101 = stablehlo.multiply %82, %82 : tensor<10xf32>
    %102 = stablehlo.subtract %101, %vars.__sm_node39__optimizer._variables.9 : tensor<10xf32>
    %103 = stablehlo.multiply %102, %cst_4 : tensor<10xf32>
    %104 = stablehlo.subtract %90, %vars.__sm_node36__optimizer._variables.6 : tensor<128x10xf32>
    %105 = stablehlo.multiply %104, %cst_2 : tensor<128x10xf32>
    %106 = stablehlo.broadcast_in_dim %38, dims = [] : (tensor<f32>) -> tensor<128x10xf32>
    %107 = stablehlo.subtract %82, %vars.__sm_node38__optimizer._variables.8 : tensor<10xf32>
    %108 = stablehlo.multiply %107, %cst_1 : tensor<10xf32>
    %109 = stablehlo.broadcast_in_dim %40, dims = [] : (tensor<f32>) -> tensor<10xf32>
    %110 = stablehlo.subtract %88, %vars.__sm_node32__optimizer._variables.2 : tensor<784x128xf32>
    %111 = stablehlo.multiply %110, %cst_0 : tensor<784x128xf32>
    %112 = stablehlo.broadcast_in_dim %36, dims = [] : (tensor<f32>) -> tensor<784x128xf32>
    %113 = stablehlo.subtract %87, %vars.__sm_node34__optimizer._variables.4 : tensor<128xf32>
    %114 = stablehlo.multiply %113, %cst : tensor<128xf32>
    %115 = stablehlo.broadcast_in_dim %42, dims = [] : (tensor<f32>) -> tensor<128xf32>
    ml_program.global_store @vars.__sm_node33__optimizer._variables.3 = %94 : tensor<784x128xf32>
    %vars.__sm_node33__optimizer._variables.3_30 = ml_program.global_load @vars.__sm_node33__optimizer._variables.3 : tensor<784x128xf32>
    %vars.__sm_node35__optimizer._variables.5_31 = ml_program.global_load @vars.__sm_node35__optimizer._variables.5 : tensor<128xf32>
    %116 = stablehlo.sqrt %vars.__sm_node33__optimizer._variables.3_30 : tensor<784x128xf32>
    %117 = stablehlo.add %116, %cst_9 : tensor<784x128xf32>
    %118 = stablehlo.add %vars.__sm_node35__optimizer._variables.5_31, %97 : tensor<128xf32>
    ml_program.global_store @vars.__sm_node35__optimizer._variables.5 = %118 : tensor<128xf32>
    %vars.__sm_node35__optimizer._variables.5_32 = ml_program.global_load @vars.__sm_node35__optimizer._variables.5 : tensor<128xf32>
    %vars.__sm_node37__optimizer._variables.7_33 = ml_program.global_load @vars.__sm_node37__optimizer._variables.7 : tensor<128x10xf32>
    %119 = stablehlo.sqrt %vars.__sm_node35__optimizer._variables.5_32 : tensor<128xf32>
    %120 = stablehlo.add %119, %cst_7 : tensor<128xf32>
    %121 = stablehlo.add %vars.__sm_node37__optimizer._variables.7_33, %100 : tensor<128x10xf32>
    ml_program.global_store @vars.__sm_node37__optimizer._variables.7 = %121 : tensor<128x10xf32>
    %vars.__sm_node37__optimizer._variables.7_34 = ml_program.global_load @vars.__sm_node37__optimizer._variables.7 : tensor<128x10xf32>
    %vars.__sm_node39__optimizer._variables.9_35 = ml_program.global_load @vars.__sm_node39__optimizer._variables.9 : tensor<10xf32>
    %122 = stablehlo.sqrt %vars.__sm_node37__optimizer._variables.7_34 : tensor<128x10xf32>
    %123 = stablehlo.add %122, %cst_5 : tensor<128x10xf32>
    %124 = stablehlo.add %vars.__sm_node39__optimizer._variables.9_35, %103 : tensor<10xf32>
    ml_program.global_store @vars.__sm_node39__optimizer._variables.9 = %124 : tensor<10xf32>
    %vars.__sm_node39__optimizer._variables.9_36 = ml_program.global_load @vars.__sm_node39__optimizer._variables.9 : tensor<10xf32>
    %vars.__sm_node36__optimizer._variables.6_37 = ml_program.global_load @vars.__sm_node36__optimizer._variables.6 : tensor<128x10xf32>
    %125 = stablehlo.sqrt %vars.__sm_node39__optimizer._variables.9_36 : tensor<10xf32>
    %126 = stablehlo.add %125, %cst_3 : tensor<10xf32>
    %127 = stablehlo.add %vars.__sm_node36__optimizer._variables.6_37, %105 : tensor<128x10xf32>
    ml_program.global_store @vars.__sm_node36__optimizer._variables.6 = %127 : tensor<128x10xf32>
    %vars.__sm_node36__optimizer._variables.6_38 = ml_program.global_load @vars.__sm_node36__optimizer._variables.6 : tensor<128x10xf32>
    %vars.__sm_node42__model._layers.4._kernel_39 = ml_program.global_load @vars.__sm_node42__model._layers.4._kernel : tensor<128x10xf32>
    %128 = stablehlo.multiply %vars.__sm_node36__optimizer._variables.6_38, %106 : tensor<128x10xf32>
    %129 = stablehlo.divide %128, %123 : tensor<128x10xf32>
    %130 = stablehlo.subtract %vars.__sm_node42__model._layers.4._kernel_39, %129 : tensor<128x10xf32>
    ml_program.global_store @vars.__sm_node42__model._layers.4._kernel = %130 : tensor<128x10xf32>
    %vars.__sm_node38__optimizer._variables.8_40 = ml_program.global_load @vars.__sm_node38__optimizer._variables.8 : tensor<10xf32>
    %131 = stablehlo.add %vars.__sm_node38__optimizer._variables.8_40, %108 : tensor<10xf32>
    ml_program.global_store @vars.__sm_node38__optimizer._variables.8 = %131 : tensor<10xf32>
    %vars.__sm_node38__optimizer._variables.8_41 = ml_program.global_load @vars.__sm_node38__optimizer._variables.8 : tensor<10xf32>
    %vars.__sm_node43__model._layers.4.bias_42 = ml_program.global_load @vars.__sm_node43__model._layers.4.bias : tensor<10xf32>
    %132 = stablehlo.multiply %vars.__sm_node38__optimizer._variables.8_41, %109 : tensor<10xf32>
    %133 = stablehlo.divide %132, %126 : tensor<10xf32>
    %134 = stablehlo.subtract %vars.__sm_node43__model._layers.4.bias_42, %133 : tensor<10xf32>
    ml_program.global_store @vars.__sm_node43__model._layers.4.bias = %134 : tensor<10xf32>
    %vars.__sm_node32__optimizer._variables.2_43 = ml_program.global_load @vars.__sm_node32__optimizer._variables.2 : tensor<784x128xf32>
    %135 = stablehlo.add %vars.__sm_node32__optimizer._variables.2_43, %111 : tensor<784x128xf32>
    ml_program.global_store @vars.__sm_node32__optimizer._variables.2 = %135 : tensor<784x128xf32>
    %vars.__sm_node32__optimizer._variables.2_44 = ml_program.global_load @vars.__sm_node32__optimizer._variables.2 : tensor<784x128xf32>
    %vars.__sm_node40__model._layers.2._kernel_45 = ml_program.global_load @vars.__sm_node40__model._layers.2._kernel : tensor<784x128xf32>
    %136 = stablehlo.multiply %vars.__sm_node32__optimizer._variables.2_44, %112 : tensor<784x128xf32>
    %137 = stablehlo.divide %136, %117 : tensor<784x128xf32>
    %138 = stablehlo.subtract %vars.__sm_node40__model._layers.2._kernel_45, %137 : tensor<784x128xf32>
    ml_program.global_store @vars.__sm_node40__model._layers.2._kernel = %138 : tensor<784x128xf32>
    %vars.__sm_node34__optimizer._variables.4_46 = ml_program.global_load @vars.__sm_node34__optimizer._variables.4 : tensor<128xf32>
    %139 = stablehlo.add %vars.__sm_node34__optimizer._variables.4_46, %114 : tensor<128xf32>
    ml_program.global_store @vars.__sm_node34__optimizer._variables.4 = %139 : tensor<128xf32>
    %vars.__sm_node34__optimizer._variables.4_47 = ml_program.global_load @vars.__sm_node34__optimizer._variables.4 : tensor<128xf32>
    %vars.__sm_node41__model._layers.2.bias_48 = ml_program.global_load @vars.__sm_node41__model._layers.2.bias : tensor<128xf32>
    %140 = stablehlo.multiply %vars.__sm_node34__optimizer._variables.4_47, %115 : tensor<128xf32>
    %141 = stablehlo.divide %140, %120 : tensor<128xf32>
    %142 = stablehlo.subtract %vars.__sm_node41__model._layers.2.bias_48, %141 : tensor<128xf32>
    ml_program.global_store @vars.__sm_node41__model._layers.2.bias = %142 : tensor<128xf32>
    return %70 : tensor<f32>
  }
  func.func @approx_predict(%arg0: tensor<28x28x1xf32>) -> tensor<10xf32> {
    %cst = stablehlo.constant dense<0.000000e+00> : tensor<1x128xf32>
    %cst_0 = stablehlo.constant dense<-0.000000e+00> : tensor<f32>
    %cst_1 = stablehlo.constant dense<0xFF800000> : tensor<f32>
    %0 = stablehlo.reshape %arg0 : (tensor<28x28x1xf32>) -> tensor<1x784xf32>
    %vars.__sm_node41__model._layers.2.bias = ml_program.global_load @vars.__sm_node41__model._layers.2.bias : tensor<128xf32>
    %vars.__sm_node40__model._layers.2._kernel = ml_program.global_load @vars.__sm_node40__model._layers.2._kernel : tensor<784x128xf32>
    %vars.__sm_node43__model._layers.4.bias = ml_program.global_load @vars.__sm_node43__model._layers.4.bias : tensor<10xf32>
    %vars.__sm_node42__model._layers.4._kernel = ml_program.global_load @vars.__sm_node42__model._layers.4._kernel : tensor<128x10xf32>
    %1 = stablehlo.dot %0, %vars.__sm_node40__model._layers.2._kernel, precision = [DEFAULT, DEFAULT] : (tensor<1x784xf32>, tensor<784x128xf32>) -> tensor<1x128xf32>
    %2 = stablehlo.reshape %vars.__sm_node41__model._layers.2.bias : (tensor<128xf32>) -> tensor<1x128xf32>
    %3 = stablehlo.add %1, %2 : tensor<1x128xf32>
    %4 = stablehlo.maximum %3, %cst : tensor<1x128xf32>
    %5 = stablehlo.dot %4, %vars.__sm_node42__model._layers.4._kernel, precision = [DEFAULT, DEFAULT] : (tensor<1x128xf32>, tensor<128x10xf32>) -> tensor<1x10xf32>
    %6 = stablehlo.reshape %vars.__sm_node43__model._layers.4.bias : (tensor<10xf32>) -> tensor<1x10xf32>
    %7 = stablehlo.add %5, %6 : tensor<1x10xf32>
    %8 = stablehlo.reduce(%7 init: %cst_1) applies stablehlo.maximum across dimensions = [1] : (tensor<1x10xf32>, tensor<f32>) -> tensor<1xf32>
    %9 = stablehlo.reshape %8 : (tensor<1xf32>) -> tensor<1x1xf32>
    %10 = stablehlo.broadcast_in_dim %9, dims = [0, 1] : (tensor<1x1xf32>) -> tensor<1x10xf32>
    %11 = stablehlo.subtract %7, %10 : tensor<1x10xf32>
    %12 = stablehlo.exponential %11 : tensor<1x10xf32>
    %13 = stablehlo.reduce(%12 init: %cst_0) applies stablehlo.add across dimensions = [1] : (tensor<1x10xf32>, tensor<f32>) -> tensor<1xf32>
    %14 = stablehlo.reshape %13 : (tensor<1xf32>) -> tensor<1x1xf32>
    %15 = stablehlo.broadcast_in_dim %14, dims = [0, 1] : (tensor<1x1xf32>) -> tensor<1x10xf32>
    %16 = stablehlo.divide %12, %15 : tensor<1x10xf32>
    %17 = stablehlo.reshape %16 : (tensor<1x10xf32>) -> tensor<10xf32>
    return %17 : tensor<10xf32>
  }
}